…
The dimensions of the image are 299 pixels width and 299 pixels height, one single color channel.
The maximum pixel value is 1.0000 and the minimum is -1.0000
The mean value of the pixels is -0.1825 and the standard deviation is 0.6687
Model: "model"
_________________________________________________________________
Layer (type)                 Output Shape              Param #   
=================================================================
input_2 (InputLayer)         [(None, 299, 299, 3)]     0         
_________________________________________________________________
normalization (Normalization (None, 299, 299, 3)       7         
_________________________________________________________________
xception (Functional)        (None, 10, 10, 2048)      20861480  
_________________________________________________________________
global_average_pooling2d (Gl (None, 2048)              0         
_________________________________________________________________
dense (Dense)                (None, 128)               262272    
_________________________________________________________________
dropout (Dropout)            (None, 128)               0         
_________________________________________________________________
dense_1 (Dense)              (None, 128)               16512     
_________________________________________________________________
dense_2 (Dense)              (None, 1)                 129       
=================================================================
Total params: 21,140,400
Trainable params: 3,445,633
Non-trainable params: 17,694,767
_________________________________________________________________
Epoch 1/20
 1/82 [..............................] - ETA: 16:04 - loss: 0.4350 - binary_accuracy: 0.5625
…
