…
Found 2600 images belonging to 2 classes.
Found 870 images belonging to 2 classes.
Found 864 images belonging to 2 classes.
The dimensions of the image are 224 pixels width and 224 pixels height, one single color channel.
The maximum pixel value is 1.0000 and the minimum is 0.0000
The mean value of the pixels is 0.3129 and the standard deviation is 0.2945
Model: "sequential"
_________________________________________________________________
Layer (type)                 Output Shape              Param #   
=================================================================
inception_v3 (Functional)    (None, 5, 5, 2048)        21802784  
_________________________________________________________________
global_average_pooling2d (Gl (None, 2048)              0         
_________________________________________________________________
dense (Dense)                (None, 512)               1049088   
_________________________________________________________________
dropout (Dropout)            (None, 512)               0         
_________________________________________________________________
dense_1 (Dense)              (None, 256)               131328    
_________________________________________________________________
dropout_1 (Dropout)          (None, 256)               0         
_________________________________________________________________
dense_2 (Dense)              (None, 128)               32896     
_________________________________________________________________
dense_3 (Dense)              (None, 1)                 129       
=================================================================
Total params: 23,016,225
Trainable params: 1,213,441
Non-trainable params: 21,802,784
_________________________________________________________________
Epoch 1/20
 1/82 [..............................] - ETA: 11:32 - loss: 1.0247 - accuracy: 0.6875
…
