…
Found 2600 images belonging to 2 classes.
Found 870 images belonging to 2 classes.
Found 864 images belonging to 2 classes.
The dimensions of the image are 224 pixels width and 224 pixels height, one single color channel.
The maximum pixel value is 1.0000 and the minimum is 0.0000
The mean value of the pixels is 0.3673 and the standard deviation is 0.3440
Model: "sequential"
_________________________________________________________________
Layer (type)                 Output Shape              Param #   
=================================================================
vgg19 (Functional)           (None, 7, 7, 512)         20024384  
_________________________________________________________________
flatten (Flatten)            (None, 25088)             0         
_________________________________________________________________
dense (Dense)                (None, 512)               12845568  
_________________________________________________________________
dropout (Dropout)            (None, 512)               0         
_________________________________________________________________
dense_1 (Dense)              (None, 128)               65664     
_________________________________________________________________
dense_2 (Dense)              (None, 1)                 129       
=================================================================
Total params: 32,935,745
Trainable params: 22,350,593
Non-trainable params: 10,585,152
_________________________________________________________________
Epoch 1/20
 1/82 [..............................] - ETA: 16:22 - loss: 0.9232 - accuracy: 0.0000e+00
…
