…
Found 2600 images belonging to 2 classes.
Found 870 images belonging to 2 classes.
Found 864 images belonging to 2 classes.
The dimensions of the image are 224 pixels width and 224 pixels height, one single color channel.
The maximum pixel value is 151.0610 and the minimum is -123.6800
The mean value of the pixels is -32.9009 and the standard deviation is 80.8430
Model: "sequential"
_________________________________________________________________
Layer (type)                 Output Shape              Param #   
=================================================================
resnet152 (Functional)       (None, 7, 7, 2048)        58370944  
_________________________________________________________________
global_average_pooling2d (Gl (None, 2048)              0         
_________________________________________________________________
dense (Dense)                (None, 512)               1049088   
_________________________________________________________________
dropout (Dropout)            (None, 512)               0         
_________________________________________________________________
dense_1 (Dense)              (None, 256)               131328    
_________________________________________________________________
dropout_1 (Dropout)          (None, 256)               0         
_________________________________________________________________
dense_2 (Dense)              (None, 128)               32896     
_________________________________________________________________
dense_3 (Dense)              (None, 1)                 129       
=================================================================
Total params: 59,584,385
Trainable params: 1,213,441
Non-trainable params: 58,370,944
_________________________________________________________________
Epoch 1/20
 1/82 [..............................] - ETA: 7:32:20 - loss: 1.6555 - accuracy: 0.7812
…
