…
Found 2600 images belonging to 2 classes.
Found 870 images belonging to 2 classes.
Found 864 images belonging to 2 classes.
The dimensions of the image are 224 pixels width and 224 pixels height, one single color channel.
The maximum pixel value is 151.0610 and the minimum is -123.6800
The mean value of the pixels is -26.8340 and the standard deviation is 84.7297
Model: "sequential"
_________________________________________________________________
Layer (type)                 Output Shape              Param #   
=================================================================
resnet101 (Functional)       (None, 7, 7, 2048)        42658176  
_________________________________________________________________
global_average_pooling2d (Gl (None, 2048)              0         
_________________________________________________________________
dense (Dense)                (None, 512)               1049088   
_________________________________________________________________
dropout (Dropout)            (None, 512)               0         
_________________________________________________________________
dense_1 (Dense)              (None, 128)               65664     
_________________________________________________________________
dense_2 (Dense)              (None, 1)                 129       
=================================================================
Total params: 43,773,057
Trainable params: 1,114,881
Non-trainable params: 42,658,176
_________________________________________________________________
Epoch 1/50
 1/82 [..............................] - ETA: 27:27 - loss: 0.9065 - accuracy: 0.5000
…
